model/cifar_net.pth (torch_old, 249664 bytes, 10 tensors)

conv1.weight f4 [6, 3, 5, 5]
000000 d6 e2 06 be e4 81 e9 bd 71 95 6b be a6 75 b6 bc
       -0.13172469 -0.11401728 -0.23006226 -0.022272896
000010 8b 50 ad bd 97 0f 4f be 34 3c c9 bd 73 7e 70 be
       -0.08462628 -0.20220791 -0.09825936 -0.23485737
000020 89 47 61 bd 50 73 14 be 88 c4 5b be c0 95 6b be
       -0.054999862 -0.14497113 -0.2146169 -0.23006344
000030 6f da 08 be 1e 52 82 be 3d d8 a3 bd 0a b3 af bc
       -0.13364576 -0.25453275 -0.080002286 -0.021447677
000040 11 50 8c bd 0a e6 00 be fb c4 39 bd 4e 34 60 bd
       -0.06851209 -0.12587753 -0.04535387 -0.05473738
000050 a8 52 8c bd 3b ea d9 3d bb d0 8d bc e4 71 88 bd
       -0.06851703 0.10640379 -0.017311445 -0.06662348
000060 a4 6f 84 3d 78 92 34 3c 6a c0 7e bd 9f 26 a8 3d
       0.06466606 0.011021249 -0.06219522 0.082104914
000070 98 fd c0 bd 44 5f 6b bd fb 1f 62 3c cf 3d 99 3d
       -0.09423369 -0.0574639 0.01380157 0.07482492
000080 3b e2 aa bd b7 15 6d 3d 7f f1 a1 3c 9a 70 ae bd
       -0.08343931 0.057882037 0.019768475 -0.08517571
000090 db 7e 66 bd cf e5 86 3d 37 b5 4f 3b a2 76 cd bd
       -0.056273323 0.06586801 0.0031693706 -0.10032393
0000a0 d7 ed 80 bc ef ae fc bc 28 f1 a3 3d 60 e7 ee 3c
       -0.01573841 -0.030845134 0.08004981 0.029163063
0000b0 8c ab 6e bd e3 32 ed 3d 49 fe db 3d 89 d8 06 3e
       -0.05826907 0.115819715 0.107418604 0.13168539
0000c0 d8 e8 0c 3e 12 32 53 bc 06 b4 a1 3d 6b 54 db 3d
       0.13760698 -0.012890356 0.07895665 0.10709461
0000d0 91 12 74 3d b4 f4 38 3c 24 de 97 3d 34 79 4c 3e
       0.05958802 0.0112888105 0.07415417 0.1996811
0000e0 5b 33 09 3e 92 d8 33 3e 47 e3 e5 3c 5b 93 77 3c
       0.13398497 0.17563084 0.028062476 0.015110816
0000f0 ef 9e 27 3e 14 7d 5c 3e ec 2a 44 3d 24 af c8 3c
       0.16369222 0.21532089 0.047892496 0.024497576
000100 74 0f fd 3d 87 96 2a 3e 37 16 5f 3d 66 4e 30 3e
       0.12356463 0.16658984 0.054464545 0.17217407
000110 cd 07 c6 3d 71 3f 3f 3d ac d8 02 3e 9b 16 9a 3d
       0.09669457 0.04669136 0.12777966 0.07523843
000120 f0 51 32 3e cc bf 95 3d b7 61 3c 3d 7a c2 95 3b
       0.17414069 0.07311973 0.045991626 0.0045703026
000130 c2 61 f1 3c a2 a6 ab 3d e4 e6 20 bd bc 48 ea bd
       0.02946556 0.08381392 -0.039282694 -0.11439654
000140 c0 c8 ab bd fd 7a 24 3e ed 2f fb 3d 21 98 01 be
       -0.083878994 0.16062541 0.122650005 -0.12655689
000150 d3 80 67 be 52 6b 2e 3d 4e d5 01 3e 5e aa c9 3c
       -0.22607736 0.042582817 0.12679026 0.02461737
000160 aa 28 aa bd fa 35 1b be 6f 0c 8d bb 3d a3 72 bc
       -0.08308537 -0.15157309 -0.0043044607 -0.014809427
000170 ef 1c 82 3d 06 0a 1a be fd 79 14 be b9 c5 52 3b
       0.06353175 -0.15042886 -0.1449966 0.003216131
000180 c9 46 a9 3c 75 b3 02 be 42 23 43 be 23 81 92 bc
       0.020663636 -0.1276377 -0.19056419 -0.017883843
000190 cc ab 8e 3c 34 1f 7f bb 05 c0 05 3d a3 c8 7c bc
       0.017415904 -0.003892851 0.032653827 -0.015428695
0001a0 66 4c 73 3b 06 2a 19 3d 45 47 90 3d 12 c5 5b 3e
       0.0037124394 0.037393592 0.070448436 0.21461895
0001b0 e0 fe 29 be 64 99 68 bd 13 f4 b9 3d d0 eb f5 3d
       -0.16601133 -0.05678691 0.090797566 0.12007868
0001c0 e7 21 20 3e e5 a1 e5 bc 7c 61 90 be ce 6a 3f 3e
       0.15637933 -0.028031299 -0.28199375 0.18693087
0001d0 96 27 72 3d fb df 9e 3d af 48 0a 3d ce e2 4e be
       0.059119783 0.07757565 0.033760723 -0.20203707
0001e0 6c b4 e0 3d a2 66 f8 3d 6d 92 6d bd d8 29 dd bd
       0.10971913 0.12128951 -0.05800097 -0.10798997
0001f0 be 21 52 3d 1f 24 a5 3c 27 e5 f0 3d e5 52 89 3d
       0.05130171 0.020158825 0.11762457 0.06705264
000200 ef d4 c4 bd 5b 28 29 be 9d b4 ba 3d 8a 2b dd 3d
       -0.09610926 -0.165193 0.091164805 0.1079932
000210 dd 54 3e 3e b3 01 22 be 5e 79 7b be b5 2d 89 3d
       0.1858706 -0.1582096 -0.24558017 0.06698171
000220 be 0e a6 3d 56 cd cb 3d 58 6d 17 be c6 e5 5c be
       0.081082806 0.09951274 -0.14787805 -0.21572027
000230 85 fc 52 3d 87 cf 6d 3d fd 21 a0 3d 0d 20 86 bd
       0.051510353 0.05805924 0.07818983 -0.06549082
000240 67 9b 4d be b2 6d 0c bd ba d4 18 3e 0e 14 2c bc
       -0.20078813 -0.0342843 0.14924899 -0.010502828
000250 51 ce f7 bd 9f b6 0b be 5b 07 ce 3d c8 fd 93 3d
       -0.120998986 -0.13643883 0.10059997 0.07226139
000260 c0 02 c5 bd e1 14 49 bd 50 dc b0 bd 05 4b 0d 3d
       -0.09619665 -0.049092177 -0.08635771 0.034495372
000270 e5 f3 a4 3c 02 78 81 bc fa d8 f8 3c 01 a9 23 bb
       0.02013583 -0.015804294 0.0303769 -0.002497256
000280 33 23 08 3e 13 57 ed 3c b5 3b 92 bb ec 89 c9 bc
       0.13294677 0.028972184 -0.004462684 -0.0246019
000290 61 92 65 bd 29 d7 88 3d 0d 4b 5f bd fc d4 0c 3e
       -0.0560478 0.066816635 -0.054514933 0.13753122
0002a0 b6 5c e9 bd 40 71 a2 bd be 2e bf bc 1b e4 a0 bc
       -0.11394636 -0.07931757 -0.023337718 -0.01964002
0002b0 6e ee 10 3e ed d2 8e 3c 9c f9 4b bd ac 60 90 3c
       0.14153454 0.017434562 -0.049798593 0.017624222
0002c0 38 76 92 bc 2c c6 fb 3c b5 f1 54 bd 79 53 ab 3d
       -0.017878637 0.030734144 -0.051988322 0.083655305
0002d0 a7 ee 3c 3d fb 92 9f 3d 9d bd e6 bd 26 d7 b2 bd
       0.046126034 0.07791706 -0.112666346 -0.087324426
0002e0 f1 0d ac bd 68 ca 5c bd 26 02 3b 3d e0 3c 33 3d
       -0.084010966 -0.053903967 0.045656346 0.043759227
0002f0 61 ee c2 bd b3 0e e8 bd 34 81 ff bc 98 73 3b 3c
       -0.095181234 -0.11330929 -0.031189539 0.011441134
000300 3d e4 17 3d 98 39 25 3d e7 e2 1d be d8 c3 4f 3d
       0.0370829 0.04033813 -0.15418588 0.05072388
000310 ca e0 63 3d 2c ad b6 3d 12 a3 b8 3d 82 22 10 be
       0.055634297 0.08919749 0.09015478 -0.14075664
000320 78 9c ca bc 2e 89 e8 3d 46 a1 a6 bd 41 7a 50 bd
       -0.024732813 0.1135429 -0.08136229 -0.05089784
000330 f0 cc 4e 3c 0f 2a 85 3d 60 5e 63 3e 7b 6b ae bd
       0.012622103 0.06502163 0.2220397 -0.08516594
000340 0b 4f da bd 6e ed 92 bd b6 37 2e 3e 8e f6 79 3d
       -0.106596075 -0.07174192 0.1701344 0.06102615
000350 2f bc 33 bc 07 f4 fc 3c 9e 3d b7 bb 0b 74 d2 3d
       -0.010970159 0.03087808 -0.005592062 0.1027604
000360 5f c1 17 3e 26 72 25 3e 64 cc 05 be 8b f6 ec bd
       0.14819859 0.16156825 -0.1306625 -0.11570462
000370 f0 d5 43 bd eb f0 82 3d c7 b1 02 3e a3 3c 11 bd
       -0.04781145 0.06393608 0.12763129 -0.03545822
000380 df 02 00 bd 8c da 15 3e 95 5f 57 3d 68 7e 49 3e
       -0.031252738 0.1463415 0.05258139 0.19677126
000390 2f 46 e1 3c d4 23 ad 3d d6 98 18 3e 6b e2 56 3e
       0.027499286 0.08454099 0.14902052 0.20984809
0003a0 7d 9c 58 3e ad 4e 78 bc 46 b7 e9 bc 64 34 10 3e
       0.21153446 -0.0151554765 -0.028529774 0.14082485
0003b0 cf 54 1b 3e ae 9e 18 bb 62 c1 c8 3d 21 f0 84 bc
       0.1516907 -0.002328794 0.0980251 -0.016227784
0003c0 7c 5e 93 3d f6 f6 3b 3e 18 fc 0b bc db 09 d9 3d
       0.07195756 0.18355927 -0.008543991 0.10597583
0003d0 90 6c 1e 3d ba 3f cd 3d ba fc 4a 3e 2c 12 74 3d
       0.038677752 0.100219205 0.1982297 0.059587643
0003e0 db fd 00 3e f2 7c 15 3e 2c 0d d8 bc e8 03 ec bb
       0.12596838 0.14598444 -0.026373468 -0.007202614
0003f0 22 07 ff 3d 61 41 a1 bd 4a 11 c6 bc 47 76 06 3a
       0.12452532 -0.07873798 -0.024178166 0.0005129319

conv1.bias f4 [6]
000000 ac be 23 3f f9 9c 0d 3f 87 6a 7a 3e c8 2f 9a 3e
       0.6396282 0.55317646 0.244547 0.3011458
000010 a9 c8 4d 3c 34 86 0d bd
       0.012560048 -0.034551814

conv2.weight f4 [16, 6, 5, 5]
000000 82 5d 41 bc 86 3f 8d bd 69 3a 93 3c ec cd 7b bd
       -0.011802079 -0.06896882 0.017972188 -0.06147568
000010 52 66 44 bd ab b3 c6 bb 89 d3 d9 bc cf 1d 57 bd
       -0.047949143 -0.0060638986 -0.026590126 -0.052518662
000020 c2 ea ea 3c 44 e3 d8 bd 59 46 ee bc a3 c3 a4 bd
       0.028676394 -0.105902225 -0.029086279 -0.08045127
000030 e0 58 ca bd ef 3d f1 bc 3d f3 91 bc 09 39 00 3d
       -0.09880233 -0.029448478 -0.01781618 0.031304393
000040 f1 1e 65 bd be a6 4c 3a df 4f e2 bd 86 38 6e bd
       -0.05593771 0.0007806829 -0.110503905 -0.058159374
000050 c9 ae 63 bc 1a 12 76 bc 60 09 88 bd 96 5a 5e bd
       -0.0138966525 -0.015018964 -0.06642413 -0.05428561
000060 db b8 ae bd 67 19 2a 3a 71 45 d6 3a 75 ec 20 3c
       -0.08531352 0.00064887706 0.00163476 0.009822001
000070 49 59 1d 3e 55 f0 22 3e ae 7b 85 bc 64 1f e0 3c
       0.15366091 0.15911992 -0.016294327 0.027358718
000080 a1 44 c7 3d ce 4a 27 3e 71 94 3b 3e ad ff 35 3d
       0.09729887 0.1633713 0.18318345 0.044433285
000090 d7 5e fb 3d a9 9f fc 3d d2 92 21 3d fc 7b a6 3d
       0.12273949 0.1233514 0.03944666 0.08129117
0000a0 bb bd e5 3d 69 4c 30 3d 49 45 89 3c 1f 48 a7 3d
       0.11217829 0.04304162 0.01675667 0.08168053
0000b0 6a 64 46 3e 7f da 34 3d cb 04 d2 3c 10 b2 bf 3c
       0.19374242 0.044153687 0.025637051 0.023400337
0000c0 e1 83 bd 3d e3 9d 41 3e 8d 62 8e 3d 8e 19 36 3d
       0.092536695 0.18907885 0.06952391 0.044457965
0000d0 78 b0 01 3e 6a 16 7f 3c 2b ed ff 3d 0c 62 6a bd
       0.12664974 0.015569309 0.12496408 -0.05722241
0000e0 00 d2 9e 3c af 2a e1 3d 9d 25 d4 3c 1f 2d 56 3d
       0.019387245 0.109944694 0.025896842 0.052289125
0000f0 55 a6 26 bd f3 d0 32 bd d8 91 ed 3d 5f 4b 02 3e
       -0.04068597 -0.0436563 0.11600083 0.12724064
000100 34 0f f9 3d c8 c0 95 3d ef f7 53 3d 4a 51 a6 b9
       0.12161103 0.07312161 0.05175012 -0.00031722552
000110 bd 73 4b bc 0f fd 0e 3e 72 13 73 ba 45 6f a1 3d
       -0.012417731 0.13963722 -0.0009272612 0.07882551
000120 b4 b1 a6 3d 0d 6d 7f 3d 15 10 b8 3d 7e e6 22 bd
       0.08139363 0.06235986 0.089874424 -0.039770596
000130 82 6e 8b bc 0d d1 71 3d e2 53 2b 3d 70 94 19 be
       -0.017020468 0.059037257 0.041828044 -0.1499803
000140 25 9f 86 ba 7a 44 69 3c 64 54 8d 3d ae 28 cd 3d
       -0.0010270817 0.0142375175 0.06900862 0.10017525
000150 3e 53 08 3d 10 2f 90 3a a9 8f 42 3d 3b da d0 3d
       0.03328251 0.0011000354 0.047500286 0.10197874
000160 51 3d 9d 3c ab b4 25 bd 10 08 a8 bc f5 32 b3 3d
       0.019194277 -0.0404555 -0.020511657 0.08749954
000170 d4 3b d0 3d 49 4a a1 3d 4e c9 1c bd 40 48 89 bd
       0.10167661 0.07875497 -0.038277917 -0.06703234
000180 9b 68 a8 bc 62 16 cf 3d aa 14 f5 bc 23 5b 09 3b
       -0.020557692 0.10111691 -0.02991708 0.0020958863
000190 c7 1f 9a bd 5f 46 b1 bc 23 a5 80 3b 99 84 30 bc
       -0.07525592 -0.02164 0.003925936 -0.010773801
0001a0 5f e7 ad 3d 51 22 c1 3c 87 34 92 bd a4 e8 13 3d
       0.08491396 0.023575934 -0.07138925 0.036110535
0001b0 3c 04 f2 bc ce 6f 8d 3d 01 2d 2d bd 38 1a be bd
       -0.029543035 0.06906091 -0.042279247 -0.092823446
0001c0 55 e1 cb 3c 0d 18 c8 3c a7 d4 01 bd 37 53 bf bd
       0.02488772 0.02442553 -0.03169694 -0.09342044
0001d0 97 23 88 3c 42 f1 53 3b bb 3e e5 bc e6 45 95 3d
       0.016618533 0.0032339846 -0.027984014 0.07288723
0001e0 7d 0d c0 bd 4c 4c 8d bd 73 5a e2 bd 4e 2a 8b 3c
       -0.09377573 -0.06899318 -0.11052408 0.016987946
0001f0 63 7d 51 bd c9 3b 7b bb dc 0c 5b 3d 7d 5d 4b 3d
       -0.05114497 -0.0038335195 0.05347906 0.049649704
000200 89 ec a4 bd 03 b8 34 b8 d5 da 80 3d a6 4b 71 3d
       -0.08052928 -4.308672e-05 0.06291739 0.058910035
000210 98 26 a0 3c 19 11 05 bd 9b a7 f9 bd b8 80 8f bd
       0.019549653 -0.03248701 -0.12190171 -0.07006973
000220 96 70 ca bc bb 2b 7c bd db bd c4 bb 60 37 8e bd
       -0.024711888 -0.061565142 -0.006004078 -0.06944156
000230 fd 7f 63 bd 3b c7 ab bc ee aa 89 bd ed 33 b0 bd
       -0.05554198 -0.020969024 -0.067220554 -0.08603654
000240 07 67 21 bc c5 74 d6 bd 22 1d d0 bd 52 4f ef bd
       -0.009851224 -0.10471491 -0.10161807 -0.11685051
000250 ed 38 8a 3b 11 c7 6e bd 6a 39 10 bd 8e a6 2e 3c
       0.004218212 -0.058295313 -0.035211004 0.010659827
000260 7d e0 4c bd 26 f5 7d 3c ba ab 2e 3d 89 24 31 bd
       -0.050018776 0.0155003425 0.04264424 -0.043247733
000270 f9 91 5b bc 56 a8 50 3d a3 30 3f bd 6f 69 b2 3d
       -0.013401502 0.050941788 -0.046677243 0.08711516
000280 d9 b5 63 3d b8 21 b7 3d da f2 65 bd 2a 46 5e 3d
       0.055593345 0.08941978 -0.056139804 0.054266132
000290 14 11 2d bd ab f1 64 3c 64 70 9e 3c a4 b4 c3 3d
       -0.042252615 0.013973634 0.019340701 0.09555939
0002a0 cb a5 0a bd bf 79 c5 bc 9c d4 84 bd 05 bb 08 bd
       -0.03384952 -0.024105905 -0.064858645 -0.03338148
0002b0 89 f7 36 3d 1d e3 c2 bc df f6 cb bc 64 d8 07 bd
       0.04466966 -0.023789937 -0.02489799 -0.03316535
0002c0 e5 32 a7 bd 08 00 ac bc 38 d3 4f bd 3b 6c 1e 3d
       -0.08164004 -0.020996109 -0.050738543 0.038677435
0002d0 44 f8 df 3d b6 0e d4 bc e4 fc 90 3c 20 4d a9 bd
       0.10936025 -0.025885921 0.017698713 -0.082666636
0002e0 f9 01 a7 bc 9d 53 44 3d 5d 47 f0 bb 64 62 e8 3d
       -0.020386683 0.047931302 -0.007332726 0.113468915
0002f0 75 30 d2 bd 33 2c 05 3d e7 c2 db 3d 37 5d 88 bb
       -0.10263149 0.032512855 0.10730534 -0.0041615027
000300 9a fb ef 3d e9 5d cf bd bb 8a b9 bd 89 fb a8 bc
       0.11717911 -0.10125334 -0.09059664 -0.020627754
000310 27 61 97 bd 14 05 79 3d 1a 49 3b 3d ba f2 01 be
       -0.07391577 0.06079586 0.045724012 -0.12690249
000320 7f 4b 13 bc 05 25 0d 3d d2 f3 8d 3c 69 b3 c0 bc
       -0.008990168 0.034459133 0.017328177 -0.02352305
000330 1e 8d 04 3d 43 2b e1 3c c6 c0 81 bc 2d 1d f6 3d
       0.032361142 0.02748645 -0.015838992 0.120172836
000340 82 00 37 bd b8 9f f9 3c 09 13 c4 3d 3e e6 d0 bc
       -0.04467822 0.030471668 0.09573943 -0.025500413
000350 6a 3b 0c 3d 18 45 0e 3d 00 88 f3 bc 5d 61 ea bc
       0.03423635 0.03473386 -0.029727936 -0.02861088
000360 5b a8 ee bc 5e 61 f6 3c 4a 34 c0 3d b7 39 5f bd
       -0.029133013 0.030075725 0.09384973 -0.0544984
000370 4c f9 ce 3c 91 c8 90 bd ef f6 c3 bc f7 c8 a5 3c
       0.025265358 -0.07069505 -0.023921458 0.020237429
000380 b0 a0 dd 3b 4a 2d 8f bd 18 bb bc bd 33 bc a1 bc
       0.00676354 -0.0699106 -0.09215373 -0.01974306
000390 1d f6 32 bd ae c1 95 bc fb 3e bf bc e5 6d 2b bd
       -0.043691743 -0.01828083 -0.023345461 -0.04185285
0003a0 28 6d 5c bc a7 c0 7b bc 24 81 92 3c 94 b3 35 bd
       -0.013453759 -0.015365756 0.017883845 -0.044360712
0003b0 2b 53 d0 bc 64 7f f7 3c a2 22 41 bb 81 10 14 bd
       -0.025430283 0.030212112 -0.0029470106 -0.03614855
0003c0 d1 09 85 3d 08 f6 a4 3d e4 b5 be 3d 3b 6a 74 3d
       0.06496013 0.08054739 0.09312037 0.05967162
0003d0 d2 57 4f bd 27 5a 97 3d 22 a3 c6 3d 44 1b bb 3d
       -0.05062086 0.07390242 0.09699084 0.0913606
0003e0 58 01 a3 bc cf 19 f2 bc 34 cd 99 3d 39 f2 b8 3a
       -0.019898102 -0.029553322 0.075098425 0.0014110274
0003f0 bf c6 83 3d 1b 46 25 3d 1e cd 54 bd 8a c3 8b 3d
       0.06434392 0.04035006 -0.051953427 0.068244055

conv2.bias f4 [16]
000000 44 6d 3a 3e 27 24 f9 bd 5d 3b a3 3c 19 9d 7b bd
       0.18205744 -0.12165099 0.019925768 -0.061429117
000010 64 1a 8b bc d3 f5 f8 bc 84 53 83 3d d2 54 ca 3c
       -0.016980357 -0.030390656 0.06412414 0.024698649
000020 96 59 07 bd 6b 15 97 3d 63 21 24 3e cf ae 6c bd
       -0.03304442 0.07377132 0.16028361 -0.057783898
000030 0f e4 af 3d 86 12 e1 3c e8 78 2d 3e 79 07 43 3d
       0.085884206 0.027474653 0.16940653 0.04761455

fc1.weight f4 [120, 400]
000000 91 18 6f 3c e4 9a aa bc 71 58 30 bb 82 85 ea bc
       0.014593259 -0.02082581 -0.0026908184 -0.028628115
000010 0a e8 75 3d 7b 3f 0c 3b 3c 06 7a bd b0 57 a4 bc
       0.060035743 0.0021400142 -0.0610411 -0.020061344
000020 d1 4e 01 3c 80 53 e6 bb cf a3 1e bd 13 f7 e5 3c
       0.007892326 -0.007028997 -0.03873044 0.028071916
000030 e7 29 06 3d 31 5d 83 bd 62 4f a9 3b 98 87 21 3d
       0.032754805 -0.06414259 0.005166934 0.039435953
000040 f2 b8 ef bc f6 b1 f0 bc 04 03 12 bc 56 de 2a bd
       -0.029262993 -0.029381733 -0.008911852 -0.041715942
000050 e8 f5 db 3c 69 56 01 bc 78 d5 47 ba 5c 17 b9 bb
       0.026850656 -0.007894137 -0.0007623057 -0.0056485366
000060 68 e5 04 3c 7f ae 68 3d f8 dd 85 bc 90 72 e4 3c
       0.008111335 0.056807037 -0.016341195 0.027886659
000070 e1 c5 49 bc e2 bd 18 bd 87 db d8 bc be 15 ba bc
       -0.012315244 -0.03729046 -0.026471866 -0.022715446
000080 64 db ce 3b 76 4c c6 3b d9 f7 a9 bc 70 44 97 bc
       0.0063127745 0.0060515953 -0.020748066 -0.01846525
000090 c6 7d 54 bd 62 f7 9a bb 3c 20 8c 3c 7a 9d cd 3c
       -0.05187776 -0.0047291974 0.017105214 0.025099505
0000a0 68 08 e6 3b f2 82 8e 3b 86 49 2e bb fc e4 28 3b
       0.007020045 0.004349106 -0.0026594116 0.002577125
0000b0 c5 08 b9 bc 6b 89 81 bc a4 83 39 3c e7 78 0f 3d
       -0.02258719 -0.015812596 0.0113228895 0.03502741
0000c0 20 47 0f 3d 3e a6 30 3d 2d 97 9c 3c 34 8b c9 bc
       0.03497994 0.04312729 0.019115055 -0.02460251
0000d0 9f 71 46 bd 2a 70 e9 bc c3 7d 06 bd 76 db 23 bd
       -0.0484482 -0.028495867 -0.03283478 -0.040004216
0000e0 ab c3 ea bc 09 59 78 bc f8 ca fb 3c e6 a7 e2 bc
       -0.028657755 -0.015157946 0.030736431 -0.02766795
0000f0 c8 ef 20 3d 72 f9 0d bd 02 2e 46 bd 8e 35 7a 3c
       0.039291173 -0.034661718 -0.04838372 0.0152715575
000100 af 2c 1e 3c 99 18 47 3c 22 dd 8e 3c 0f 74 93 3c
       0.009654208 0.012151861 0.017439429 0.017999677
000110 3b 76 bd 3c ec 6a a7 38 28 67 02 bb b1 bf 8d bb
       0.023127666 7.983096e-05 -0.0019897912 -0.00432583
000120 c4 13 e5 3c f3 8c 5a bc 34 de 10 bd 4a 98 48 3d
       0.027963527 -0.013339269 -0.03536816 0.04897336
000130 bd bf a5 3c f5 00 73 3d e6 e6 04 3d 9e fc 46 3d
       0.02023303 0.059327085 0.032446764 0.04858076
000140 51 b8 15 3d 64 72 83 3d 06 51 fe 3b 07 f2 26 bd
       0.03655273 0.06418303 0.0077611236 -0.04075816
000150 0e e5 f9 3c 75 79 cf 3b c2 bc 1a 3d 5c 17 c4 3c
       0.03050473 0.0063316175 0.03777767 0.02393692
000160 ab 00 8f 3c 11 33 5c bd 3d 1d 5a 3d 59 f8 19 bb
       0.017456373 -0.05375964 0.05325054 -0.0023493974
000170 9d 8b 1d 3d d2 84 c9 3c 38 27 8d 3b 2b 32 16 3d
       0.038463224 0.024599466 0.0043076538 0.036668938
000180 96 76 08 3c b5 1d b2 bc 9d 7c 3f 3c a5 60 26 bd
       0.008329054 -0.021742681 0.011687425 -0.04061951
000190 a1 a6 f2 3b 5b 43 2b bc b8 c2 d8 bb d0 ae 85 bc
       0.0074051176 -0.0104530705 -0.006615009 -0.016318709
0001a0 ed 31 f6 bc 9b b7 42 bd af 9f 78 3c b7 ed f0 3b
       -0.030053103 -0.04753838 0.01517479 0.0073525566
0001b0 49 b4 3a 3d 2c 11 f4 3b 7e 19 18 39 21 b2 d9 bb
       0.04558209 0.007448336 0.00014505346 -0.006643549
0001c0 20 4c 2d bd ed 37 18 3d b6 2a 44 3d 3a f2 10 bd
       -0.042308927 0.03716271 0.047892295 -0.035387255
0001d0 a2 a3 f1 38 29 4e f1 3b cd 7a 4f 3d 78 9e c0 3c
       0.000115222545 0.0073640537 0.05065422 0.023513064
0001e0 14 1d 82 bc cf 66 59 3c cc bb a3 3c 32 b6 2c 3d
       -0.015883006 0.01326914 0.01998701 0.042165942
0001f0 68 4e a0 3b b4 3b 15 3d dc ad b0 bc 97 38 01 bc
       0.0048921593 0.03643389 -0.021567278 -0.007887027
000200 90 82 25 3d 25 65 29 bc b6 7c 26 3c 76 74 95 3c
       0.040407717 -0.010339056 0.010161569 0.01824401
000210 d4 f2 57 bc 51 94 ef 3c af c7 d2 3c ce df ce 3c
       -0.013180453 0.029245527 0.025729982 0.025253203
000220 ef 07 25 bc 1d 1b 40 bd 4e c3 91 ba e3 6a 03 3d
       -0.010072692 -0.046900857 -0.0011120827 0.032084357
000230 75 d6 39 3c 1d 96 f0 3c 41 34 63 38 d6 31 14 bd
       0.011342634 0.029368455 5.4169683e-05 -0.03618034
000240 89 c1 34 bd 04 4c 18 3d 44 b0 21 3d d5 e5 17 bd
       -0.044129882 0.03718187 0.03947474 -0.03708442
000250 2d 5f 0f bd 2d e5 22 bb 17 e8 9c bd c2 63 5c bd
       -0.035002876 -0.0024855838 -0.07661455 -0.053806074
000260 15 93 91 bc 2d af 4a 3d 48 17 8a 3b b2 54 a8 bb
       -0.01777033 0.049483467 0.004214201 -0.0051370496
000270 19 a7 8f bb 92 85 11 3d 9c 18 de 3c 98 37 b2 3c
       -0.0043839333 0.035527773 0.027111344 0.021755025
000280 9e 02 01 3d 17 59 46 3d 1a 19 e5 3c 2e b9 40 3d
       0.031496637 0.048424806 0.02796607 0.0470516
000290 a3 03 35 bc 82 d1 1e 3c 2e b0 5d 3d c6 99 51 3d
       -0.01104823 0.009693505 0.054123096 0.05117204
0002a0 cc 08 88 bc f1 33 82 bc 1e 72 a7 bc c0 fd d2 3c
       -0.016605757 -0.015893908 -0.020440158 0.025755763
0002b0 90 b3 81 bc 69 be 31 bc b9 25 3f bd f8 a3 06 3d
       -0.015832692 -0.01084862 -0.046666835 0.032871217
0002c0 c4 f7 92 bb 4e 19 53 3d 19 8f 0a 3d a8 2f b3 3b
       -0.0044851024 0.051537804 0.033827875 0.0054683276
0002d0 c1 90 49 bd c0 04 57 3a ea e6 04 3d 36 79 71 bd
       -0.049210314 0.0008202307 0.03244678 -0.058953486
0002e0 2f e0 1f 3c 7d fe 08 3d a1 d7 9a bc f6 69 01 bd
       0.009758039 0.033445824 -0.018901648 -0.031595193
0002f0 18 f8 cc 3c 50 29 5d bc 10 9d bb 3c 0d 1d c6 3c
       0.025020644 -0.013498619 0.022902042 0.024183774
000300 f6 b7 1b bc 8b 7e 3f bd 1d 52 f2 3b 50 12 2b bd
       -0.009504309 -0.04675154 0.0073950426 -0.04176551
000310 38 63 2d 3d 18 41 05 bc 58 2f e4 bc 1d 28 48 3d
       0.04233095 -0.008133195 -0.027854607 0.04886638
000320 c2 40 08 3d 87 0a 2b 3c ea 7d 9b 3c 30 bc 39 3d
       0.033264883 0.010439522 0.018980939 0.045345485
000330 f4 d7 ea 3a b5 ab f1 bc 0a 68 cc 3c 77 fd 82 3d
       0.0017917142 -0.029500822 0.024951953 0.06396001
000340 8f 2e a2 3c 83 fc 93 bc d7 a2 45 bb a1 09 43 bc
       0.019797591 -0.018064743 -0.0030156875 -0.011904151
000350 85 35 e7 bc 47 5b c2 bc 6e b4 a8 3c e1 01 b8 3c
       -0.028223762 -0.023725165 0.020593848 0.022461833
000360 fb 68 57 3c e6 76 80 3c 01 61 fe bc 0c df b7 3b
       0.013147588 0.015681695 -0.031052114 0.005611306
000370 ab bb cd 3c bc cc 3a 3d 8c 69 77 3d 38 d7 63 bc
       0.025113901 0.045605406 0.06040339 -0.013906293
000380 05 d0 98 bc 46 29 79 bc 1f 96 19 3c e7 75 23 bd
       -0.018653879 -0.015207594 0.009374171 -0.039907362
000390 94 3f fc bb 4c ac 28 bd c7 5f 3a bc 4a 8c 4a bd
       -0.007698009 -0.04117994 -0.011375374 -0.049450196
0003a0 57 74 08 3d 0e 92 0c bd e9 25 80 3c 9f 4a 7c bb
       0.033314075 -0.034318976 0.015643077 -0.0038496626
0003b0 b4 13 fb bc 53 cb b9 bc 6b 04 30 bc 3c d1 88 3b
       -0.030649044 -0.02267996 -0.010743241 0.0041753333
0003c0 29 e0 e0 3c 55 38 73 3c 44 65 e0 bc f6 06 c2 bc
       0.027450638 0.014844974 -0.027392037 -0.02368496
0003d0 4f 79 11 3d 9f 4d af 3c 94 62 ff 3c ef 26 9d 3c
       0.03551608 0.021399317 0.031174935 0.019183604
0003e0 0f d2 11 3d a6 a8 97 bc db a7 46 3d e7 de 8b 3c
       0.035600718 -0.018513035 0.048499923 0.017074062
0003f0 60 79 bf bc 64 17 7f bb d8 e9 0c bd db 16 d9 3c
       -0.023373306 -0.0038923854 -0.0344027 0.026500156

fc1.bias f4 [120]
000000 2c c2 47 bd 23 6a 23 bd 30 35 8c 3c 97 95 71 bd
       -0.04876916 -0.03989614 0.017115206 -0.05898055
000010 e0 da 7e bb 80 aa bc bb ae fc 07 bd d6 73 30 bd
       -0.0038887784 -0.00575763 -0.03319996 -0.04307922
000020 3e 78 15 bd b3 cd 26 bc a2 f4 2b b9 18 c7 ae 3d
       -0.036491625 -0.010180878 -0.00016398964 0.08534068
000030 aa de 33 bd 73 81 e1 bc fe 49 1b bd b0 5c 0d 3c
       -0.04391352 -0.027527547 -0.03791236 0.008628055
000040 26 5b e5 3c 10 dd 43 bd 23 3a b2 bc ab 53 0f 3c
       0.027997565 -0.047818244 -0.021756237 0.008747975
000050 58 f4 34 bd 6f ab 9a bc 4c 9f 5b 3d 79 75 40 3d
       -0.044178337 -0.018880574 0.053618714 0.04698703
000060 0e 6e 1b bd 6b 68 07 bd 98 69 19 3d 98 03 6f 3c
       -0.037946753 -0.033058565 0.037454218 0.014588259
000070 20 2d b1 3b 4f a0 72 3d 18 97 0c 3d 30 ad 8a 3d
       0.0054069906 0.059234913 0.03432378 0.06771314
000080 ce ec f5 3d e3 eb 81 bb db 4d 83 bd 63 31 22 3d
       0.120080575 -0.0039648875 -0.06411334 0.03959788
000090 32 b2 95 3d 39 24 c3 3d ae 17 0f 3d 5d 8d 35 3d
       0.07309379 0.09528393 0.034934692 0.044324268
0000a0 e3 ec ec 3c 9b 57 20 bc 0b eb 74 bd 1e 00 b4 3c
       0.02892155 -0.009786512 -0.059794467 0.021972712
0000b0 8b 57 80 bc d6 a7 de 3c a1 c5 54 bd 23 82 39 3d
       -0.015666744 0.02717964 -0.051946286 0.045290124
0000c0 32 7d 59 bc a1 70 45 bc 07 24 eb bc a8 78 86 bd
       -0.013274478 -0.012050779 -0.028703703 -0.06565982
0000d0 e7 6b ec 3c 4d 83 28 bd c6 aa 69 bd af 65 1e 3d
       0.028860046 -0.041140843 -0.057047628 0.03867119
0000e0 5f 7a 2f 3d 8e 29 90 bd 3c 19 5c bc 76 46 68 3d
       0.04284131 -0.07039176 -0.013433751 0.05670782
0000f0 b8 0a b1 3d 42 ab 6b 3d bf d9 46 bd 40 e2 82 bc
       0.086446226 0.05753637 -0.048547503 -0.015977025
000100 87 7e 1b bd 95 54 8c 3d bf 04 23 3d fb d9 e1 3b
       -0.037962463 0.0685207 0.039799448 0.0068924404
000110 b3 66 0f bb ef e7 a5 3c b5 ff 58 bc 40 9a bf 3c
       -0.0021881282 0.020252196 -0.013244559 0.023388982
000120 0c 8c 25 bd 68 86 dd bc e7 fc 14 3d 36 a5 0b bd
       -0.040416762 -0.027041629 0.036374 -0.034093104
000130 3c d5 6c bd ef ca c9 3d 70 00 74 3d 8d eb a7 3c
       -0.057820544 0.0985316 0.05957073 0.020498062
000140 cc 95 cd 3c 95 28 47 3d 1c f0 69 bd 29 c7 3b bd
       0.025095843 0.048622686 -0.05711375 -0.04584423
000150 fc 45 33 3d cc 54 8e 3c ab 36 1d bd c9 73 c1 bb
       0.043767914 0.017374419 -0.038382214 -0.0059036952
000160 ca b7 44 bc 25 30 e7 bc 83 86 fc bc 6d 2a 4f 3c
       -0.012006709 -0.0282212 -0.030825859 0.012644392
000170 e4 69 23 bd 09 ff 24 bd e4 f1 8a bc 1a e2 10 bd
       -0.039895907 -0.040282283 -0.016961046 -0.035371877
000180 da a1 22 bd 25 0a 59 3c 90 6c e0 bc 1b d8 99 3b
       -0.039705135 0.013247048 -0.027395517 0.004694951
000190 e8 30 46 bd 65 39 c4 3c 92 bc 7e bb 5c 47 ca 3a
       -0.048386484 0.02395315 -0.003886972 0.0015432644
0001a0 1b 31 a6 3c 7f 70 18 bd aa a1 8f 3c 06 fe 2a bd
       0.020287087 -0.03721666 0.017533142 -0.041746162
0001b0 e4 5b 9b 3d 95 02 a2 bc e9 c5 f9 bc fe d2 8b 3d
       0.07585886 -0.019776622 -0.030489879 0.06827353
0001c0 83 e9 10 bd ec 39 9f 3d fb 56 4b 3d bb f0 f4 3c
       -0.035378944 0.077747196 0.049643498 0.029899945
0001d0 a1 09 d0 3c 43 e8 0f 3d 3c c7 9a bc 6a b5 02 3d
       0.025395216 0.03513361 -0.01889383 0.03191129

fc2.weight f4 [84, 120]
000000 e2 cc 57 bd 95 6b 48 3d d9 0e 4e bc 4c 2c 7d 3b
       -0.052685626 0.048930723 -0.012576782 0.003863114
000010 d8 ba b8 3d 7a 5b 0e 3e 52 47 b9 bd 14 7f 24 bd
       0.090200126 0.13902083 -0.090468064 -0.040160254
000020 eb 9b a4 3d 77 ef a4 3d 87 e9 c0 bd dd 0b ae bb
       0.080375515 0.08053487 -0.09419542 -0.005311473
000030 b2 e1 44 3d 4d c7 2b bd 76 04 6a 3c 7b 0f 3d 3d
       0.048066802 -0.041938115 0.01428329 0.04615734
000040 57 4a 97 bd 7d 6c c1 3c 5e cb cf 3d 95 7a b9 bd
       -0.07387226 0.023611302 0.10146211 -0.09056584
000050 44 02 4a bd 0e 0b c6 3d 53 ce 0a 3e 8e 7b 1c bd
       -0.049318567 0.09670077 0.13555269 -0.03820377
000060 85 72 2d 3c 46 2b 1c 3d db ac da 3d 7e 61 b2 3d
       0.010586386 0.038127206 0.10677501 0.087100014
000070 84 29 4a bd 5c e3 7c bc 0a 4f b5 bc 44 a1 26 bd
       -0.049356 -0.015435066 -0.022132415 -0.04068114
000080 b4 cd 06 be 2e 19 c9 bd 5e 4a 4d 3d 0b 33 9b bd
       -0.13164407 -0.09819256 0.05011975 -0.07578095
000090 bb 7e e0 3c 29 4d 33 be 0e 86 bc 3d e1 2d 7b bd
       0.02740418 -0.17509903 0.092052564 -0.06132305
0000a0 50 b5 d6 3c b7 45 60 3c eb 62 20 bc dd 06 9c 3b
       0.026209503 0.013688496 -0.009789209 0.0047615604
0000b0 3b 73 35 bc 61 27 91 bd d3 3f 85 bd c3 a1 2d 3d
       -0.011074836 -0.07087589 -0.06506314 0.042390596
0000c0 91 ab 88 3c 1f e9 3d 3d d8 98 35 3d 09 47 02 3e
       0.016683372 0.0463649 0.044335216 0.1272241
0000d0 a5 5b e3 3d 6b 4d 6f bd 24 d9 9b 3c 24 fa 25 3d
       0.11101464 -0.05842344 0.01902444 0.040521756
0000e0 4a 81 66 3c 3c 60 90 3d f2 d6 89 3c 99 e9 0b bd
       0.014068911 0.07049605 0.016826127 -0.034158323
0000f0 ff 7e dc 3c 05 0f 9a bc ef 8e f2 3d 82 68 89 bc
       0.026916025 -0.01880599 0.11843669 -0.016773466
000100 62 da 09 3d c7 10 00 be 32 57 86 3d ea f7 b5 3d
       0.03365553 -0.125064 0.065596 0.088851765
000110 98 a9 de bd fd 2b a5 3d a2 34 96 3c e0 d8 a7 3c
       -0.10872191 0.08065031 0.018335644 0.020489156
000120 30 ac c2 3d 4d 3f 60 bc 31 bc 8d 3d 5d b1 28 3c
       0.095054984 -0.013686967 0.0692066 0.010296193
000130 01 26 11 3d 1c a2 4b bd f2 2c 96 bd 35 91 e5 3c
       0.035436634 -0.049715146 -0.073327914 0.028023342
000140 89 4f 3f bc 23 df 8e 3d 8a 69 8a bd e7 84 40 bc
       -0.0116766775 0.06976154 -0.06758411 -0.011750436
000150 93 a6 8e bd 49 95 a9 3d b2 57 5d 3b d4 a3 8a bc
       -0.06965365 0.08280427 0.0033774194 -0.016923822
000160 8f 6e 20 bb 16 38 f3 ba 76 93 a8 bd 37 6d d1 bc
       -0.002447996 -0.0018556144 -0.08231251 -0.025564773
000170 a9 35 29 3c 82 90 ac bd c7 c9 a4 3d a8 61 f5 3c
       0.010327735 -0.08426 0.080462985 0.029953793
000180 1e cc 46 3d 01 21 17 bc 31 a4 dc 3a 00 6a 24 bc
       0.048534505 -0.009224177 0.0016833601 -0.010035038
000190 c0 5d 26 bc 23 ee 47 3d 6e a7 2d bd 72 ed ad 3c
       -0.010154188 0.04881109 -0.042396 0.021231387
0001a0 89 4b 8d bd 5b ef 9b 3c 3d e1 87 3d 46 d8 e5 bc
       -0.06899173 0.019035032 0.06634758 -0.028057229
0001b0 86 da 23 3d e6 3d ba 3d c7 0d 6e bd b6 19 7c 3d
       0.040003322 0.090938374 -0.058118608 0.061547957
0001c0 78 37 32 bd e2 61 32 3a d3 2a bd bd b8 a9 9e bb
       -0.04350993 0.0006804747 -0.09236684 -0.0048420094
0001d0 bf 36 a0 3d 9b e3 bb 3c ef d5 a7 bd 23 78 21 3a
       0.07822942 0.02293568 -0.081951015 0.00061595644
0001e0 2b 14 c5 3d 5b ac 28 bd cb f2 b6 ba 70 e4 88 3c
       0.09622987 -0.041179996 -0.0013957856 0.01671049
0001f0 c9 a6 c6 3c fb ef 9c 3c 3e 9a b9 3d 67 11 b6 3d
       0.024249451 0.0191574 0.090626225 0.08890038
000200 e1 19 b6 bd ef 36 b7 3d d5 e2 ae bb f1 0c 9e bd
       -0.08891655 0.089460246 -0.005337099 -0.07717312
000210 0e 35 86 bc 56 6e 3c 3d f1 27 38 3d 0f 07 a2 3d
       -0.01638272 0.046003662 0.044959966 0.079115026
000220 55 79 41 bd 6f 65 e9 3d e3 ad 02 bd 1b 4c 05 bd
       -0.047234852 0.113963 -0.031904113 -0.032543283
000230 62 2e 1e bd 8f 5f 0e 3d 21 48 04 3e 0e 80 c1 3d
       -0.038618453 0.0347591 0.1291814 0.094482526
000240 5e 24 61 bd 2b fe 43 3d dd 79 9f 3d e9 53 ad bd
       -0.054966323 0.047849815 0.077869155 -0.0846327
000250 9a c5 ab 3d 38 39 3a 3d ec 9d b9 3d d5 74 dd bd
       0.08387299 0.045464724 0.09063324 -0.108132996
000260 ab b0 8c bd b3 ff 2b bc 83 59 94 3c b9 fa 25 3d
       -0.06869634 -0.010497975 0.018109089 0.04052231
000270 bd 75 54 3d 9e 39 8b bd d1 01 b4 3b cc ce 24 3c
       0.051870096 -0.06798099 0.0054933806 0.01005907
000280 e7 6c 53 bd fc af 6f bc 89 33 94 bd bb 6a a7 bd
       -0.05161753 -0.01462936 -0.07236392 -0.08174654
000290 2c 0f ea 3c bc eb 33 3c 50 8f b4 bd 10 ec bf 3d
       0.028571688 0.010981496 -0.08816397 0.09371197
0002a0 1e 2b 3e bc 07 7e 45 3d 4c 38 6e bd 9f 21 4c 3c
       -0.01160696 0.048215892 -0.058159158 0.012459188
0002b0 02 48 89 3a 05 4a 85 3c 57 66 c3 3d 6f e5 89 3d
       0.001047373 0.016270647 0.09541004 0.06733214
0002c0 8d cc 76 bd 99 d1 c9 3c 2e 3e bf bd 14 db fc bd
       -0.06025367 0.024636077 -0.09338032 -0.12346473
0002d0 a5 b4 7a bd ac 95 5d bd 48 a2 74 bd 48 6f 3e bd
       -0.061207432 -0.054097816 -0.059725076 -0.046492845
0002e0 bd 52 aa 3d ff b6 9d 3b 15 a7 48 3d a6 9b aa 3d
       0.08316562 0.0048130746 0.048987467 0.08330469
0002f0 c5 8e c0 bd 90 46 9c 3d de 5e a6 3d 7e 3e 93 bc
       -0.09402231 0.07630646 0.08123563 -0.017974135
000300 8a 18 b4 3d 7f cb 33 bd 8e 3e fa 3c 1d b1 26 3d
       0.08793743 -0.04389524 0.030547407 0.040696252
000310 51 1d 6a bb f3 f1 8b bb e8 86 05 3d 7c dc 76 bd
       -0.003572304 -0.004270786 0.03259936 -0.060268864
000320 30 ee 37 bc a3 bf 82 bc 03 e0 e6 3d 27 7a 1c bd
       -0.011226222 -0.01596052 0.112731956 -0.03820243
000330 d3 96 bd 3c d4 aa 89 bb 61 af 90 bd 77 6a a8 3d
       0.023143208 -0.0042012725 -0.07064701 0.082234316
000340 f7 2a 94 bb 15 52 92 bd 36 36 c0 bd 08 13 ae bd
       -0.0045217234 -0.07144562 -0.0938534 -0.08499724
000350 5d 46 9d bd f0 9b 32 3a 0b 47 9d 3d 83 65 d4 3a
       -0.07679436 0.00068133976 0.07679566 0.0016204569
000360 f7 d0 11 3d c9 53 b6 bd 37 ad 20 3d 8e 9a e3 3c
       0.035599675 -0.089026995 0.03922769 0.027783658
000370 16 4e 91 3c 68 3d 5f bd a7 30 81 3d 01 97 9d ba
       0.01773743 -0.05450192 0.06308108 -0.0012023152
000380 44 4a 15 bd 37 d4 25 bd 04 2b da 3d 33 b8 b9 bc
       -0.03644778 -0.040485587 0.10652736 -0.02267084
000390 1a 77 85 3c a5 f9 0f bd 01 cf 43 bd 78 75 bd bd
       0.016292144 -0.03515019 -0.047804836 -0.09250921
0003a0 18 89 56 bd 08 4f 1a bd 43 38 a2 bd 3e 6f 27 bc
       -0.052376837 -0.037673026 -0.07920887 -0.010219393
0003b0 43 84 95 bd 38 b6 37 bc ad c9 92 bd 53 07 6b 3d
       -0.073006175 -0.011212878 -0.07167373 0.05738003
0003c0 3c 7c e3 bc 90 87 ed bc 11 aa a9 bc e1 b4 7c 3c
       -0.0277692 -0.028995305 -0.020710977 0.015423984
0003d0 37 2d 88 3d 8c 54 b4 3b 32 02 4f 3d 94 a9 21 3d
       0.06649249 0.005503243 0.050539203 0.039468363
0003e0 b3 21 6e bd a7 0c ac bd af 4a 3b 3d 06 17 83 3d
       -0.058137607 -0.08400851 0.04572552 0.06400876
0003f0 ed cb 42 3d 10 db 39 3c b0 71 a2 bd 7b 09 18 bc
       0.04755776 0.0113437325 -0.079318404 -0.009279604

fc2.bias f4 [84]
000000 0e 68 86 bc 2d 88 38 3d 47 25 d8 bd 2c dd 8b 3d
       -0.016407039 0.045051742 -0.10553985 0.068292946
000010 c4 a9 2c 3e aa b4 72 bc 7d 2a a3 bd f6 4f 66 bc
       0.16861635 -0.0148135815 -0.07967088 -0.01405715
000020 9f 11 a5 bd 9e fd 47 bd 02 d7 6b bd 84 2d bc bb
       -0.080600016 -0.048825853 -0.057578094 -0.0057427306
000030 82 50 1a bd a3 61 38 bb c9 3f 38 3d 6b 2b 1e bd
       -0.037674434 -0.0028134368 0.044982705 -0.038615625
000040 5e 5a 0b 3e a1 a1 74 bd 3f 01 0f bc 3e 79 55 bd
       0.13608691 -0.059724454 -0.008728324 -0.05211758
000050 6b b3 e7 3d 3b c5 90 3c 8a 1c 30 3d fd 41 3f bb
       0.11313518 0.017672172 0.042995967 -0.002918362
000060 41 f1 81 bd c7 a6 6d 3d 2a 46 94 3d ce ad 02 3e
       -0.06344844 0.05802038 0.07239945 0.12761614
000070 9b 3d 97 3d 07 96 b9 bd d9 77 8b 3c de cb 2a bc
       0.07384797 -0.090618186 0.017024921 -0.010424582
000080 1f e8 3c bd ba 0f ac bd b6 1a 38 3e 9d 06 a7 3a
       -0.046119805 -0.08401437 0.1797894 0.001274306
000090 f3 42 6f 3d 5a 3f 6a bd 01 7e bd 3d 16 c1 04 3e
       0.058413457 -0.057189323 0.09252549 0.12964281
0000a0 23 73 b8 3d cb 1c 6c 3c eb c2 bf 3b 56 59 82 bc
       0.090063356 0.014411162 0.0058520935 -0.01591174
0000b0 a8 b8 48 bd a8 61 03 3e 2e fe a4 3c d4 6c 57 3a
       -0.049004227 0.12830222 0.020140734 0.0008217816
0000c0 0d 52 fa 3a 65 96 6b bd bc 2c c8 3d 1d 67 fe 3a
       0.0019097939 -0.057516474 0.097741574 0.0019409392
0000d0 49 94 99 3d 66 cb ba 3d 1d 2a df 3d c9 d8 d6 3d
       0.07498986 0.091208264 0.10896704 0.10490567
0000e0 6f 26 4b 3d 0c 8c dc 3c a8 53 40 bd f8 cd ef 3d
       0.0495972 0.026922248 -0.04695478 0.11709207
0000f0 3a ba 08 3d 39 8f 03 bd 76 6a ca bc 8f a9 1e 3d
       0.033380724 -0.03211901 -0.024708968 0.038735922
000100 f5 f2 13 bc 34 6f 92 bd dc a9 d2 3c d3 92 82 bb
       -0.009030093 -0.071501166 0.02571576 -0.003984788
000110 2a ff 32 bd f0 c2 c2 39 b6 32 35 bd cf 55 32 3c
       -0.043700375 0.00037147803 -0.044237815 0.010884716
000120 ff 30 ba bd d3 d6 18 bd bb 25 f0 bd 29 95 47 bd
       -0.090913765 -0.037314247 -0.117259465 -0.048726235
000130 31 0d bc 3c 91 19 40 3d e7 1e 99 3d 60 95 c7 3d
       0.022955509 0.046899382 0.07476597 0.09745288
000140 2f f9 fd 3d 2d c4 83 bd f9 f0 92 3d b8 e8 90 bd
       0.124010436 -0.06433902 0.07174868 -0.070756376

fc3.weight f4 [10, 84]
000000 2c 04 61 bd 5c e4 82 bc 64 21 09 be be 56 45 3e
       -0.05493562 -0.01597803 -0.13391644 0.19271371
000010 1c 80 da 3c 0e 4c 9a 3d 5a fa a9 bd 83 04 34 3d
       0.026672415 0.075340375 -0.08299704 0.043949615
000020 18 86 88 bd ec 31 cd 3d e3 71 70 bb a5 31 21 3e
       -0.06666201 0.100192875 -0.0036688976 0.15741594
000030 8a be 16 3d f1 ab 68 bd fc 21 9f bd 0a 70 df bd
       0.036802806 -0.0568046 -0.07770154 -0.10910042
000040 dc ed e2 bc 9f 25 47 3d dc c9 3e 3c a7 88 42 3d
       -0.02770131 0.048619863 0.011644807 0.047493603
000050 41 9a 80 bd 60 05 7d bd 2f 38 07 3e d0 39 2c 3e
       -0.062794216 -0.061772704 0.13205026 0.16818929
000060 42 6e c9 bc 58 ab 4b 3d c0 15 18 3e 3b 4e 73 3d
       -0.024588708 0.049723953 0.14852047 0.05940078
000070 36 5d e5 bd 78 6b 45 be 6b 4f 1d be c7 11 2b be
       -0.11199419 -0.19279277 -0.15362327 -0.16706
000080 d7 41 ec bd 51 42 f4 bd 4c 6a b9 bc 8e 5d 7e bc
       -0.115359955 -0.11926711 -0.022633694 -0.015525235
000090 96 6d ef bc e8 18 99 3d 77 9c 0c bd 84 ca 25 bd
       -0.02922706 0.074754536 -0.034328904 -0.040476337
0000a0 76 38 a7 bd 18 40 f1 bc 22 cd 37 bc 62 cb 3f 3c
       -0.08165066 -0.029449508 -0.011218341 0.011706205
0000b0 80 f1 9f bd 4e 19 76 3d be 59 89 3d e9 97 2d bb
       -0.07809734 0.060082726 0.0670657 -0.002648825
0000c0 73 92 a2 3d 12 00 af bd a6 03 b6 3d 6a 1c a9 3d
       0.07938089 -0.08544935 0.08887415 0.08257373
0000d0 f1 d8 28 bd 22 63 90 bd 84 fd 47 bd 81 6e 2b 3e
       -0.041222516 -0.07050158 -0.048825756 0.16741373
0000e0 b5 e9 10 3d fe 87 05 3e 84 52 32 be 2c 14 85 bd
       0.03537913 0.13040158 -0.1741429 -0.06497988
0000f0 fe f5 d1 bd ad af 63 bd 19 7d a1 3d d0 11 2d 3e
       -0.102519974 -0.05558746 0.078851886 0.16901326
000100 b8 33 48 3e ab 26 95 3d 7b 48 09 be 3f af b3 3d
       0.19550979 0.07282766 -0.13406555 0.0877366
000110 1c bf 86 3d 8c 61 02 3e 0c ae a5 3d 0f 8c f4 bd
       0.0657942 0.12732524 0.080898374 -0.119407766
000120 00 eb a7 3d e1 57 98 3b 69 9e 0d be a4 55 e2 bc
       0.081991196 0.004649148 -0.1382996 -0.027628727
000130 03 72 bc bd 41 77 50 bd 92 b6 f0 3d 36 3a ed 3d
       -0.092014335 -0.05089498 0.117535725 0.115833685
000140 85 5e 2c 3e 4c 93 52 bd 96 cd 2f 3e 18 75 db bc
       0.16832931 -0.051410004 0.17168269 -0.026789233
000150 f4 f2 44 3d 94 5d 6e 3e 49 16 a7 3d e7 d0 49 bd
       0.04808326 0.23277885 0.081585474 -0.04927149
000160 1d d9 49 bd 8d 50 bd 3d 07 31 0d 3e 95 49 03 3e
       -0.04927932 0.092438795 0.13788234 0.12821038
000170 3e be 15 bd 98 a7 48 bc bd 28 26 bd 36 d6 ef 3d
       -0.036558382 -0.012246989 -0.040566195 0.11710779
000180 f6 4d 3a 3d 39 3e 53 3c f1 0e de bd 65 dd 42 3e
       0.045484506 0.012893253 -0.108426936 0.19029768
000190 74 c2 93 3d 48 94 a5 bd 1d 7b ed bd ff cf 8f bd
       0.07214823 -0.08084923 -0.115957476 -0.07022094
0001a0 83 98 7f 3d 46 8a e4 bb 31 4c 14 be b8 dd 5d 3d
       0.062401306 -0.0069744913 -0.1448219 0.054166526
0001b0 fa 11 94 bc eb 7f 5a 3d f7 6b 5b be 9c 47 d1 3c
       -0.018074978 0.05334465 -0.21427904 0.025546841
0001c0 ab 4d a1 3c 87 6d 81 3d 52 9e fb 3c 43 a7 15 3d
       0.019690355 0.06319719 0.030715141 0.036536466
0001d0 5e cc b1 3d 59 a7 cb bc c0 20 48 be b4 54 30 3c
       0.08681558 -0.024860071 -0.19543743 0.010762382
0001e0 4b 04 6d 3e 84 26 d4 3d 31 e4 1b 3d 12 55 1a be
       0.23146169 0.10358909 0.038059417 -0.15071514
0001f0 b5 2e 6b 3d 5e 0b b2 bc ce 6d 95 bd e7 2b 05 bd
       0.05741759 -0.021733936 -0.07296334 -0.03251257
000200 2b a2 04 be 39 a0 c8 bd 50 32 87 bc 4a cc 0b be
       -0.12952487 -0.09796185 -0.016503483 -0.13652149
000210 e5 ec 73 3d 57 b1 b8 bd 85 77 52 bd 49 83 29 bd
       0.059552092 -0.090182 -0.051383514 -0.04138497
000220 dd 0d d7 bd a3 0a 32 be 4d cb 4c bd 7e 9a ca bd
       -0.10500691 -0.1738687 -0.04999857 -0.09892748
000230 ad 91 a1 bd 8f a8 8e bd 9d 8a 72 bc 1b be 9d be
       -0.078891136 -0.06965744 -0.014803556 -0.308091
000240 23 08 df 3c 18 bf 95 bd 93 6b 52 be fa f8 fc 3d
       0.02722556 -0.07311839 -0.20548849 0.12352176
000250 8c 4a c1 bd ab e3 af 3d 45 ca bd 3d b2 d5 37 3e
       -0.09438047 0.08588346 0.092670955 0.17952612
000260 1b 5a 33 3e 2b 79 33 3e f0 97 ce 3a ac 43 ab bc
       0.17514841 0.1752669 0.0015761834 -0.020906292
000270 de 2b 42 3e 47 9e 63 bd e5 0f fa 3d ec 69 ae 3d
       0.18962047 -0.055570867 0.12210063 0.08516297
000280 61 f9 3b be a8 f0 47 be 7d 49 c1 bd 32 77 13 bd
       -0.18356849 -0.19525397 -0.09437845 -0.036002345
000290 26 4e 80 bd 55 20 8c 3d 6b 81 28 be ba 3d 9d bd
       -0.06264906 0.06842104 -0.16455619 -0.07677789
0002a0 6f 54 1a bd 14 ce 1a be 3d 64 46 bd 39 3a 33 bc
       -0.03767818 -0.15117675 -0.04843544 -0.010939174
0002b0 ef 12 f0 3d 65 50 6a 3d bf 41 24 bd 45 cb 05 be
       0.11722361 0.057205576 -0.040101763 -0.13065822
0002c0 74 0b d1 bc 68 79 ad 3d 59 3c 84 bd 45 ab d0 3d
       -0.025518157 0.08470422 -0.06456823 0.10188917
0002d0 fb 6c 6c bc 22 9d 1f bb 74 fe 3c 3d de 24 b0 3d
       -0.01443028 -0.0024355133 0.046141103 0.08600782
0002e0 73 f1 31 3e 95 7f 7b bd e8 17 75 3d 09 89 ae 3c
       0.17377262 -0.06140097 0.059837252 0.021305578
0002f0 a3 d5 81 bd 59 67 4b bd 91 19 55 bd cc 45 7b 3d
       -0.06339576 -0.049659107 -0.052026335 0.06134586
000300 76 f8 60 3d aa fa c5 3d a8 d7 3f 3d 67 5e 25 3e
       0.05492445 0.09666951 0.046836525 0.16149293
000310 dc 7d 13 3e 2d 95 32 be e5 23 3d be c3 fb 73 bd
       0.1440348 -0.17439719 -0.18470724 -0.05956627
000320 5c c6 de 3d ca 4f 4f 3d 12 f1 ea 3d fc 5a 05 3e
       0.10877678 0.050613202 0.11471762 0.13022989
000330 23 7e ad 3d 63 0a 0a 3d 39 6f 33 3e 95 86 66 bd
       0.08471324 0.03370131 0.17522897 -0.05628069
000340 16 e8 14 3e a2 ee dc 3d 52 91 80 bc 55 bc 49 3c
       0.14541659 0.10787703 -0.015694294 0.012312968
000350 77 5d 35 bd 84 e1 ef 3d 40 7f 0a 3d 3a 6d 52 3d
       -0.04427859 0.117129356 0.03381276 0.051373698
000360 c6 7f 88 bd df 82 ca bd 52 f0 72 3d 81 fb a9 bd
       -0.06664996 -0.09888243 0.05931122 -0.08299924
000370 51 c8 8b bd f5 92 6b 3e 51 23 10 3e 8c 2b ce bd
       -0.06825317 0.23005278 0.14075972 -0.100669
000380 f3 d3 9d 3d ea 88 c4 bd ce cb 37 be bb 12 24 3e
       0.07706442 -0.09596427 -0.17948839 0.1602277
000390 08 5a c5 3c 67 cb ee bc ec 18 3c 3d d8 9b 71 3d
       0.024090782 -0.029149724 0.045922205 0.058986515
0003a0 be 98 cf 3d 7f b5 d4 bc 0c 6b 28 bc e8 68 b2 bd
       0.10136555 -0.02596545 -0.010279428 -0.087114155
0003b0 fb 35 70 be 3a 70 40 3e 8a 6e 9d bd 3f 41 3b 3e
       -0.23458092 0.18792811 -0.07687099 0.18286608
0003c0 cb ac f6 bd 74 af 91 bc a2 78 07 be ad 80 d8 3d
       -0.120446764 -0.017783858 -0.13229612 0.10571418
0003d0 a7 df f1 bc 48 fa fe bb 9b 78 30 3d b4 28 61 bd
       -0.029525591 -0.0077813007 0.04308377 -0.05497046
0003e0 81 d2 9e 3c a1 fa 33 bd fc 90 27 3e e5 fc bb 3d
       0.019387485 -0.04394019 0.16363901 0.09179095
0003f0 0e 8f 0e be 8e b3 9f bd 8b 90 85 b8 6e 59 a1 3b
       -0.13921759 -0.07797919 -6.3688574e-05 0.004923991

fc3.bias f4 [10]
000000 9e 93 98 bd 3e 55 37 bc ed c1 04 3e f0 63 c2 3d
       -0.07450031 -0.011189757 0.12964602 0.09491718
000010 64 53 75 3e 33 c5 68 bd d8 51 72 3e 74 f9 5c be
       0.23957592 -0.05682869 0.23664033 -0.21579534
000020 cc 18 e5 3d b3 fa 3f be
       0.1118637 -0.18747978
